…
/localhost:8080/"},"id":"juDNCyjtReRS","executionInfo":{"status":"ok","timestamp":1690887286321,"user_tz":-330,"elapsed":3982,"user":{"displayName":"Nakshatra Sharma","userId":"01843511600107500444"}},"outputId":"fb174aa7-d582-4b59-c8b5-1eee3e028d05"},"execution_count":null,"outputs":[{"output_type":"stream","name":"stdout","text":["Model: \"sequential\"\n","_________________________________________________________________\n"," Layer (type)                Output Shape              Param #   \n","=================================================================\n"," conv2d (Conv2D)             (None, 248, 248, 32)      896       \n","                                                                 \n"," max_pooling2d (MaxPooling2D  (None, 124, 124, 32)     0         \n"," )                                                               \n","                                                                 \n"," conv2d_1 (Conv2D)           (None, 122, 122, 64)      18496     \n","                                                                 \n"," max_pooling2d_1 (MaxPooling  (None, 61, 61, 64)       0         \n"," 2D)                                                             \n","                                                                 \n"," conv2d_2 (Conv2D)           (None, 59, 59, 64)        36928     \n","                                                                 \n"," max_pooling2d_2 (MaxPooling  (None, 29, 29, 64)       0         \n"," 2D)                                                             \n","                                                                 \n"," conv2d_3 (Conv2D)           (None, 27, 27, 128)       73856     \n","                                                                 \n"," max_pooling2d_3 (MaxPooling  (None, 13, 13, 128)      0         \n"," 2D)                                                             \n","                                                                 \n"," conv2d_4 (Conv2D)           (None, 11, 11, 128)       147584    \n","                                                                 \n"," max_pooling2d_4 (MaxPooling  (None, 5, 5, 128)        0         \n"," 2D)                                                             \n","                                                                 \n"," flatten (Flatten)           (None, 3200)              0         \n","                                                                 \n"," dense (Dense)               (None, 256)               819456    \n","                                                                 \n"," dense_1 (Dense)             (None, 1)                 257       \n","                                                                 \n","=================================================================\n","Total params: 1,097,473\n","Trainable params: 1,097,473\n","Non-trainable params: 0\n","_________________________________________________________________\n"]}]},{"cell_type":"code","source":["model.compile(optimizer='rmsprop',loss='binary_crossentr
…
